webapp /skin_lesion/inference/models/unet_skin_segmentation.tflite (tflite, 515912 bytes, 29 tensors)

arith.constant f4 [16]
0.039699323 0.008422219 0.013690274 0.007270235 0.037307948 0.021422904 0.034840547 -0.016415192
-0.024249995 0.0297788 0.012425069 -0.02606939 0.042016193 0.0010330667 -0.031478893 -0.020457642
00000000: c29b 223d 59fd 093c 2c4d 603c 273b ee3b
00000010: 38d0 183d 167f af3c f6b4 0e3d 2779 86bc
00000020: eda7 c6bc acf2 f33c 8492 4b3c 798f d5bc
00000030: 2c19 2c3d f767 873a 03f0 00bd c996 a7bc

arith.constant1 f4 [16, 3, 3, 3]
0.11342645 -0.120671354 0.10962286 -0.1337116 0.0011448434 -0.12539949 0.075527206 0.076552056
-0.03887715 -0.07805127 -0.06390063 -0.046111226 0.11207686 -0.013803034 -0.087997004 0.07953154
-0.12209371 0.043489043 0.04645009 -0.09728592 -0.019888064 0.008125269 0.072061904 0.060702473
-0.087677784 -0.14485799 0.0053416835 0.10403317 0.15606797 0.0401871 0.11285866 -0.015483508
-0.052069124 0.07174319 -0.054124814 -0.15490772 -0.08056333 0.14029837 0.016023993 0.07182611
0.17735645 -0.029552767 -0.1781099 0.058319654 -0.12915185 -0.034969795 -0.026552796 0.052032284
0.15781485 0.13850172 -0.07858272 0.1044062 0.09517141 -0.116630554 -0.081887715 -0.01634464
-0.07440064 0.11223063 -0.13986938 -0.14730725 -0.0790315 -0.08940641 0.15299477 -0.05396834
0.13692367 -0.18652849 -0.118414655 0.05106015 0.045501914 0.13754271 -0.051896814 0.147714
0.17167021 0.023048503 -0.17393711 -0.04081052 0.12756589 -0.15023753 0.035794638 -0.00991739
0.1416104 0.12240498 0.015378701 0.18942423 -0.1282106 0.20579813 -0.12752274 -0.1391162
0.05474997 -0.08301695 0.005917664 0.17938936 0.11710656 -0.09441146 0.11630877 0.068134435
-0.115514636 -0.03846829 -0.180548 0.027110599 0.08879387 -0.05040916 -0.0700642 -0.050362702
-0.10983909 0.007914586 0.0528493 0.16838834 -0.043946445 0.027793199 -0.10078884 0.01566426
0.054968864 -0.057286255 -0.10227712 0.117864706 0.11374406 0.0044156816 -0.04252184 0.04071661
0.008375442 -0.09508651 0.15300736 -0.04311323 0.1735454 -0.13125022 -0.063343026 -0.11093729
0.016949387 0.027335491 -0.065550864 -0.06821699 0.016611883 0.07555732 -0.030434694 0.13618086
-0.05759244 0.19579081 -0.03926486 0.04433714 -0.11867184 0.1334317 -0.054983232 0.031377997
0.14684501 0.052371792 -0.14398044 -0.1649577 -0.075073846 -0.09172478 -0.080838926 0.14283685
-0.12672232 -0.10833257 -0.11742836 0.19492617 0.083429545 -0.109837 -0.07859333 -0.11026936
0.14671312 0.07475046 -0.06502272 0.14493576 -0.012351327 -0.1710988 -0.009137867 -0.072764724
0.12896103 0.07801391 -0.10057308 -0.045256548 -0.15192035 0.034240942 0.11450448 -0.12479097
0.09801113 0.072890274 -0.13778113 0.08088429 0.027834995 0.0101812305 0.0946276 -0.058263186
0.107786104 0.115729146 -0.059478186 -0.0852804 0.017884256 -0.057454083 0.040133793 0.01046809
0.016848318 0.04073469 0.1458701 -0.07444611 -0.0675285 0.051096145 -0.1264146 0.19322634
-0.07342915 0.14888243 0.05065841 0.054552086 -0.038766373 0.15884082 -0.14167534 -0.0463891
-0.15937974 0.012165474 -0.07510229 0.16803817 0.048502546 -0.14642668 0.025579328 0.15270065
0.044754453 0.0859275 0.08880839 -0.16447 -0.015113848 -0.03261582 -0.1887214 0.11869661
0.036368582 0.09086928 -0.10017145 0.01270213 -0.050842926 0.13172488 -0.076622225 0.099987395
0.059100863 0.18284261 0.03540513 -0.14255558 -0.17113551 0.03941798 -0.04720915 0.10674562
0.073521145 0.18339477 0.0019503438 -0.1459552 -0.044392113 0.12147482 -0.11964626 -0.034067433
0.017550105 0.09594562 -0.1098604 -0.1803601 0.035634577 -0.08107691 0.14793219 -0.114488944
00000000: 204c e83d 8b22 f7bd f381 e03d b2eb 08be
00000010: 920e 963a b968 00be 02ae 9a3d 53c7 9c3d
00000020: a53d 1fbd 58d9 9fbd 55de 82bd 20df 3cbd
00000030: 8e88 e53d 1f26 62bc c637 b4bd 6fe1 a23d
00000040: 440c fabd 9121 323d 7342 3e3d d73d c7bd
00000050: 4bec a2bc d91f 053c 3195 933d 28a3 783d
00000060: 6990 b3bd a755 14be 4a09 af3b 580f d53d
00000070: 48d0 1f3e 3b9b 243d 7122 e73d 8aae 7dbc
00000080: 6f46 55bd 18ee 923d fbb1 5dbd 21a0 1ebe
00000090: 63fe a4bd 60aa 0f3e c044 833c 9119 933d
000000a0: ee9c 353e a518 f2bc 7162 36be 97e0 6e3d
000000b0: 6240 04be 7d3c 0fbd 4085 d9bc ce1f 553d
000000c0: 379a 213e 65d3 0d3e faef a0bd ebd2 d53d
000000d0: 3ae9 c23d 00dc eebd bfb4 a7bd 32e5 85bc
000000e0: 5d5f 98bd 2cd9 e53d eb39 0fbe b6d7 16be
000000f0: 44db a1bd b51a b7bd a9aa 1c3e e80d 5dbd
00000100: b835 0c3e 5301 3fbe 6283 f2bd 7324 513d
00000110: 3760 3a3d ffd7 0c3e c191 54bd 5742 173e
00000120: 51ca 2f3e 37d0 bc3c 921c 32be ef28 27bd
00000130: a2a0 023e ded7 19be 669d 123d 8c7c 22bc
00000140: 5102 113e 76af fa3d f2f6 7b3c 6df8 413e
00000150: a449 03be bfbc 523e 5295 02be 7a74 0ebe
00000160: 8141 603d ca04 aabd f7e8 c13b d8b1 373e
00000170: 90d5 ef3d cc5a c1bd 4b33 ee3d 118a 8b3d
00000180: f092 ecbd ed90 1dbd 93e1 38be 0c17 de3c
00000190: 8fd9 b53d d679 4ebd d27d 8fbd 1f49 4ebd
000001a0: 51f3 e0bd 2eac 013c 8278 583d fe6d 2c3e
000001b0: 3001 34bd 90ae e33c 616a cebd 5652 803c
000001c0: 0827 613d fea4 6abd ab76 d1bd 0d63 f13d
000001d0: a5f2 e83d 6cb1 903b 622b 2ebd 76c6 263d
000001e0: 2639 093c b7bc c2bd f6ad 1c3e 8097 30bd
000001f0: e3b5 313e 7566 06be fdb9 81bd 1733 e3bd
00000200: 71d9 8a3c aeee df3c 883f 86bd 59b5 8bbd
00000210: a515 883c ccbd 9a3d 2e52 f9bc ff72 0b3e
00000220: 0de6 6bbd 637d 483e 31d4 20bd dc9a 353d
00000230: 390a f3bd 52a2 083e 1936 61bd 3786 003d
00000240: 8a5e 163e ce83 563d 9c6f 13be acea 28be
00000250: 51c0 99bd 34da bbbd e18e a5bd d343 123e
00000260: 7fc3 01be 77dd ddbd 487e f0bd ba9a 473e
00000270: 1cdd aa3d 39f2 e0bd 8af5 a0bd e7d4 e1bd
00000280: f73b 163e c516 993d a22a 85bd 0a6a 143e
00000290: 385d 4abc 8634 2fbe feb6 15bc ac05 95bd
000002a0: 5c0e 043e c2c5 9f3d 42f9 cdbd ee5e 39bd
000002b0: 0291 1bbe 3b40 0c3d 5381 ea3d 6892 ffbd
000002c0: 0fba c83d 7f47 953d 7f16 0dbe aaa6 a53d
000002d0: 3706 e43c 2dcf 263c 1dcc c13d 61a5 6ebd
000002e0: f6be dc3d 6703 ed3d 669f 73bd 7ea7 aebd
000002f0: 0182 923c f954 6bbd 5563 243d 5a82 2b3c
00000300: 7c05 8a3c 6bd9 263d f95e 153e 3477 98bd
00000310: 624c 8abd 314a 513d d472 01be 20dd 453e
00000320: 0662 96bd a374 183e 317f 4f3d 0272 5f3d
00000330: 7dc9 1ebd 2ba7 223e 5713 11be 7f02 3ebd
00000340: 7134 23be b251 473c 3bcf 99bd 3312 2c3e
00000350: 9baa 463d e0f0 15be bd8b d13c 8f5d 1c3e
00000360: 7250 373d c2fa af3d 2ce1 b53d d36a 28be
00000370: 13a0 77bc 2b98 05bd 2f40 41be 3517 f33d
00000380: 39f7 143d ac19 ba3d b026 cdbd 981c 503c
00000390: ac40 50bd e3e2 063e 1dec 9cbd 31c6 cc3d
000003a0: bf13 723d 183b 3b3e f804 113d 17fa 11be
000003b0: 263e 2fbe bf74 213d 625e 41bd 739d da3d
000003c0: 4192 963d d7cb 3b3e aea2 ff3a 4875 15be
000003d0: 81d4 35bd cac7 f83d 1909 f5bd 4b8a 0bbd
000003e0: 3dc5 8f3c 237f c43d 7dfe e0bd 51b0 38be
000003f0: 90f5 113d a70b a6bd 897b 173e 2e79 eabd

arith.constant16 f4 [16]
-0.0054688365 0.029101074 -0.0041969456 0.030774677 0.009907287 0.0066285166 0.03284982 0.0073164133
0.019719766 0.008964927 0.022337377 0.019112067 0.02603338 0.014698352 0.006548312 0.007839674
00000000: ed33 b3bb 6065 ee3c 8886 89bb 2d1b fc3c
00000010: 2c52 223c 0734 d93b 888d 063d 86be ef3b
00000020: 598b a13c a1e1 123c e0fc b63c e990 9c3c
00000030: f443 d53c 5bd1 703c 3993 d63b fa71 003c

arith.constant17 f4 [16]
-0.007295652 0.013249126 -0.0035712135 -0.0059201363 0.018307937 0.023218563 0.027692104 0.015721297
0.03623906 0.0316312 -0.019910378 0.009332765 0.012836693 0.010917994 0.022941612 0.019677036
00000000: 5d10 efbb dd12 593c 050b 6abb b4fd c1bb
00000010: 87fa 953c db34 be3c 8dda e23c f3c9 803c
00000020: 696f 143d b88f 013d 171b a3bc 74e8 183c
00000030: fe50 523c 63e1 323c 0cf0 bb3c bc31 a13c

arith.constant18 f4 [32]
0.016213024 0.017412493 -0.008541614 0.006646618 0.014920251 0.005036082 0.021597654 0.041991834
-0.005160394 0.007522618 -0.0061139897 0.025344495 -0.004943259 0.008544307 0.025931858 0.026158739
0.01296894 0.0296486 0.01909196 0.027807705 0.008299783 0.011924682 -0.0036455218 0.032534145
0.0041555404 -0.0017485638 0.01346808 0.02417457 -0.0029019692 -0.0031107615 0.03053699 -0.01517977
00000000: 2dd1 843c a5a4 8e3c 20f2 0bbc dfcb d93b
00000010: 1274 743c b805 a53b 90ed b03c a1ff 2b3d
00000020: 8618 a9bb 4b80 f63b dd57 c8bb 429f cf3c
00000030: 10fb a1bb 6cfd 0b3c 0c6f d43c da4a d63c
00000040: ad7b 543c 9fe1 f23c be66 9c3c fccc e33c
00000050: d0fb 073c be5f 433c b5e9 6ebb 8642 053d
00000060: 332b 883b 1130 e5ba 39a9 5c3c bf09 c63c
00000070: f72e 3ebb ebdd 4bbb b628 fa3c 92b4 78bc

arith.constant19 f4 [32]
-0.010546131 0.0068401434 0.017118597 -0.011297749 0.008201194 0.028549394 0.0015873809 0.015425341
0.006291892 0.0016324676 0.008134528 0.0053230436 -0.0061660176 0.0010541882 0.000341706 0.017124752
0.03805808 0.0082399715 -0.009460595 0.00835878 -0.014242306 0.020437183 0.0059365137 -0.0047293766
0.019085048 0.00584773 0.013742633 0.01609788 0.021988984 0.0030774218 0.009948386 0.0024548087
00000000: aec9 2cbc 4823 e03b 4d3c 8c3c 321a 39bc
00000010: 4d5e 063c 6be0 e93c aa0f d03a 92ba 7c3c
00000020: 372c ce3b 86f8 d53a af46 053c ed6c ae3b
00000030: 4e0c cabb b02c 8a3a 0127 b339 3549 8c3c
00000040: cae2 1b3d f200 073c 9d00 1bbc 44f3 083c
00000050: 9058 69bc e16b a73c 1687 c23b e3f8 9abb
00000060: 3f58 9c3c 519e bf3b c828 613c b4df 833c
00000070: 3e22 b43c 92ae 493b 8efe 223c dbe0 203b

arith.constant20 f4 [64]
-0.014067388 0.035211645 -0.0037496772 0.000645432 0.014027748 0.013524071 0.00085258775 0.014632627
-0.0020182673 0.029362882 -0.017004361 0.016158348 -0.010992085 -0.0033391905 0.014979412 0.00193694
0.0023077049 -0.005036397 0.037100337 0.013933753 -0.00034366993 0.016419668 0.010958133 -0.008810087
0.014149128 0.000103716586 -0.01205865 0.0009932682 0.01798866 0.017547546 0.0053115725 -0.0010905117
-0.005062928 0.013630081 -0.006098488 0.011582472 -0.017618444 0.010087436 0.0020017475 0.009612395
0.015777618 -0.0031275053 0.011425348 0.0037022878 0.0025523677 0.0018577316 0.017331487 -0.0022069956
0.011844714 -0.010802253 0.001139363 0.024806866 0.019916615 0.012076986 0.011321785 0.00435253
-0.006638826 0.015030254 0.0072503416 0.008588197 -0.0063822893 0.031914525 0.017235737 0.0046541844
00000000: e77a 66bc 163a 103d 25bd 75bb 3532 293a
00000010: a4d4 653c 1194 5d3c 3280 5f3a b0bd 6f3c
00000020: e844 04bb 6d8a f03c bb4c 8bbc 835e 843c
00000030: 2518 34bc 52d6 5abb 356c 753c ece0 fd3a
00000040: dd3c 173b 5c08 a5bb 86f6 173d 654a 643c
00000050: 992e b4b9 8a82 863c be89 333c 2f58 10bc
00000060: bfd1 673c 6b82 d938 a591 45bc 8d30 823a
00000070: f45c 933c dfbf 8f3c b30c ae3b 80ef 8eba
00000080: ebe6 a5bb b450 5f3c d3d5 c7bb 69c4 3d3c
00000090: 8e54 90bc c645 253c c02f 033b 4f7d 1d3c
000000a0: 1040 813c d5f6 4cbb 6231 3b3c 15a2 723b
000000b0: a045 273b 217f f33a c3fa 8d3c 3ea3 10bb
000000c0: 5510 423c effb 30bc ae56 953a c537 cb3c
000000d0: 2b28 a33c 8dde 453c 027f 393c ab9f 8e3b
000000e0: 828a d9bb 7441 763c 4694 ed3b 82b5 0c3c
000000f0: 8622 d1bb ceb8 023d f631 8d3c 2182 983b

arith.constant21 f4 [64]
-0.006615341 0.013741085 0.012274589 0.0014979858 0.0028164145 -0.0031157117 0.016279837 0.012741626
0.00032868912 -0.01072773 0.012737425 0.018234745 0.010975621 0.0060838796 0.0100124115 0.015834138
-0.0064078327 -0.00423535 -0.0044378 0.0040754736 0.012256777 0.013912194 0.011844776 0.015801474
-0.0003361703 0.012093532 0.011583334 -0.0012881829 0.0024717152 0.013213399 -0.007442402 0.011172702
-0.0068481164 0.009619521 0.010272382 0.009150152 0.0025187775 -0.010273958 0.00017529893 0.020829841
-0.01011129 -0.01180089 0.0102018565 0.0027864533 0.0137935225 0.0066289743 0.015060915 0.0027474018
0.0014435229 0.011929139 0.008214306 0.013519017 0.01813911 -0.009760193 0.002766914 0.0030342888
0.011779571 0.010128434 0.0060051363 -0.0033111991 0.0022955905 0.008234586 -0.0069898916 0.011151702
00000000: 81c5 d8bb 4a22 613c 5c1b 493c 1058 c43a
00000010: 9893 383b f830 4cbb 4b5d 853c 41c2 503c
00000020: e853 ac39 5cc3 2fbc a2b0 503c 0861 953c
00000030: 17d3 333c 485b c73b 190b 243c 98b6 813c
00000040: ccf8 d1bb b1c8 8abb f76a 91bb 8d8b 853b
00000050: a6d0 483c f9ef 633c 9710 423c 1872 813c
00000060: 0440 b0b9 f323 463c 06c8 3d3c 3fd8 a8ba
00000070: 80fc 213b 037d 583c 65df f3bb b50d 373c
00000080: 2a66 e0bb 329b 1d3c 7e4d 283c 85ea 153c
00000090: 1312 253b 1a54 28bc 73d0 3739 58a3 aa3c
000000a0: d3a9 25bc 8558 41bc b025 273c ee9c 363b
000000b0: 3afe 613c de37 d93b 0ec2 763c c10d 343b
000000c0: 9734 bd3a 6f72 433c 4c95 063c de7e 5d3c
000000d0: 7998 943c 37e9 1fbc 1d55 353b ebda 463b
000000e0: 1aff 403c bbf1 253c bcc6 c43b b400 59bb
000000f0: 9e71 163b 5bea 063c 760b e5bb a1b5 363c

arith.constant22 f4 [128]
-0.0013906697 -0.006761442 -0.0004049939 0.013590717 0.008374705 -0.015745344 0.00058359804 0.007718736
0.010167608 0.0066821016 0.006296617 -0.010031707 0.011319624 0.014144403 0.009401506 0.0026926873
0.0048772753 0.011365483 -0.008079304 0.007930639 -0.009432744 0.010115278 -0.008472447 -0.007820315
0.00022322442 0.00446893 -0.005367841 -0.002931859 -0.0104687195 0.0034706178 0.009397037 0.0042032227
0.0062161637 0.010604676 -9.0905494e-05 -0.001836241 0.010271996 0.011105442 0.0020688016 0.0015088925
-0.005569562 -0.0036889547 -0.013066069 0.009282261 0.0036380491 0.01424752 7.288928e-05 0.009177345
0.008382276 0.0034502028 0.009364944 -0.00061248796 0.003716243 -0.0031068488 -0.0032804606 0.00919847
0.009973858 0.013963762 -0.015629912 0.01002706 0.0035930828 0.0048833163 0.0024563272 0.010018963
0.012548013 0.0016179705 -0.007670238 -0.00079804275 -0.0047715027 0.010703695 0.0053259428 0.012190944
0.0072958763 -0.0034717238 0.009882196 -0.006317938 0.013087509 -0.002176971 0.008722219 0.010313431
-0.0061934534 0.005807196 0.008545243 0.006020898 0.000870199 0.007794263 0.007459533 0.016528003
-0.0048120455 0.009473126 0.00916957 -0.006255103 0.0076130093 0.001969263 -0.010212808 -0.0066078403
0.0119554885 -0.0043663024 0.011724248 -0.00517003 0.0061324323 -0.00355854 0.0125315515 0.011468072
-0.0020986896 0.011317143 0.0053683175 0.006789234 0.013347094 0.012408245 -0.008696099 -0.007052051
0.0023880654 -0.009289357 -0.015039947 0.011541996 0.0047046486 0.009593913 0.012566299 -0.011548595
-0.012807176 0.011454879 0.010051902 -0.013045564 -0.012948777 -0.008413034 0.0059437063 -0.014585703
00000000: 2247 b6ba 168f ddbb 5c55 d4b9 99ab 5e3c
00000010: 0f36 093c 61fc 80bc 9afc 183a 73ed fc3b
00000020: 0a96 263c 88f5 da3b da53 ce3b 075c 24bc
00000030: f275 393c edbd 673c c608 1a3c cc77 303b
00000040: 8dd1 9f3b 4a36 3a3c 0f5f 04bc 83ef 013c
00000050: cc8b 1abc 8dba 253c 05d0 0abc c720 00bc
00000060: 5911 6a39 1a70 923b b7e4 afbb 6f24 40bb
00000070: fe84 2bbc 4e73 633b 08f6 193c 30bb 893b
00000080: f6b0 cb3b 3cbf 2d3c 84a4 beb8 06ae f0ba
00000090: e04b 283c 9af3 353c bb94 073b 08c6 c53a
000000a0: df80 b6bb 64c2 71bb 1113 56bc a014 183c
000000b0: 566c 6e3b 6e6e 693c 22dc 9838 935c 163c
000000c0: d055 093c cc1c 623b 6c6f 193c 5f8f 20ba
000000d0: 368c 733b 469c 4bbb fffc 56bb 2eb5 163c
000000e0: 6469 233c 43c8 643c 4d0a 80bc 8a48 243c
000000f0: ed79 6b3b 3a04 a03b 55fa 203b 9426 243c
00000100: 2e96 4d3c 1512 d43a 9f56 fbbb be33 51ba
00000110: 445a 9cbb 8d5e 2f3c 3f85 ae3b 86bc 473c
00000120: 3f12 ef3b dc85 63bb efe8 213c b506 cfbb
00000130: fe6c 563c 83ab 0ebb a3e7 0e3c aaf9 283c
00000140: 74f2 cabb 4a4a be3b 5901 0c3c f44a c53b
00000150: 111e 643a 0467 ff3b 196f f43b bc65 873c
00000160: 5dae 9dbb 2c35 1b3c f73b 163c 9bf7 ccbb
00000170: 8d76 f93b c00e 013b 9f53 27bc 9586 d8bb
00000180: f4e0 433c 3313 8fbb 0f17 403c 5b69 a9bb
00000190: 92f2 c83b 6536 69bb 2351 4d3c 95e4 3b3c
000001a0: 2b8a 09bb 8a6b 393c b6e8 af3b 3978 de3b
000001b0: c5ad 5a3c f44b 4b3c 157a 0ebc e414 e7bb
000001c0: 1781 1c3b 6332 18bc 1c6a 76bc a41a 3d3c
000001d0: 7429 9a3b ca2f 1d3c e1e2 4d3c 5136 3dbc
000001e0: 31d5 51bc 3fad 3b3c bcb0 243c 10bd 55bc
000001f0: 1b27 54bc d2d6 09bc 6cc3 c23b dff8 6ebc

arith.constant23 f4 [128]
0.0058883335 0.0072070677 0.012855632 0.011247764 0.009485929 0.016776947 -0.008186092 -0.010571315
-0.0024176766 -0.0003651077 -0.0012583021 -0.004460203 0.011299634 0.010649025 0.010339779 -0.0034982732
0.0009382567 -0.0017801854 0.008752023 0.0039455434 0.0065470887 0.008347135 -0.009065248 0.0022410913
0.012507649 -0.007296806 -0.0107548665 0.0029926335 0.0075240163 -0.001633728 0.012089737 -0.013984061
0.00865531 0.0055500004 -0.01678483 -0.0059222956 -0.0025271338 0.009630694 0.00950373 0.009419634
-0.009091437 0.009443855 -0.0080825845 -0.0045776935 0.0008211871 -0.018461121 -0.0071046194 0.011930162
-0.008194626 -0.0058629205 0.010926253 0.01031596 0.0043011424 0.0013363061 -0.012969554 0.010784157
-0.01711361 -0.0046327645 0.0069862898 0.007599842 0.00456562 0.0010745618 0.003680655 0.006047495
-0.012140734 0.0050370176 -0.0149466125 -0.00859866 0.013282271 0.0028650926 0.0066625755 0.014367978
-0.0028950875 0.007421651 0.013346228 -0.010729785 0.0051553464 -0.015538285 0.009980013 0.000120760655
0.014544509 0.014424054 0.008948265 0.011427766 -0.0003440498 0.00430167 -0.0017032615 0.004246858
0.011369608 0.009741357 0.0030255816 0.012255859 -0.009696145 0.008888437 -0.00070416735 -0.00036420068
0.008930752 0.0071813986 -0.0037163827 0.0040669576 -0.008601716 0.0060216263 0.004459505 0.008273046
-0.006382329 -0.0009536594 0.007051888 0.0016245432 0.0034349216 0.0038614175 -0.008749452 0.012676777
0.010372408 0.0054792915 -0.010517136 0.00544632 0.0057590716 0.011628599 -0.008355566 -0.010433017
0.0058023413 0.0051602023 0.0069837226 0.008023745 0.013368555 0.010396547 -0.0011585688 0.011990874
00000000: ecf2 c03b 4429 ec3b 6ea0 523c 8b48 383c
00000010: df6a 1b3c cf6f 893c f51e 06bc 4f33 2dbc
00000020: e271 1ebb ed6b bfb9 9ded a4ba e526 92bb
00000030: 1a22 393c 4079 2e3c 2d68 293c 4943 65bb
00000040: 57f5 753a 1c55 e9ba a564 0f3c 9e49 813b
00000050: f688 d63b 6cc2 083c 6886 14bc 46df 123b
00000060: e2ec 4c3c 0c1a efbb 2e35 30bc 0f20 443b
00000070: 068c f63b d122 d6ba 0814 463c 671d 65bc
00000080: 00cf 0d3c c7dc b53b 5780 89bc d10f c2bb
00000090: 459e 25bb 0fca 1d3c 88b5 1b3c cf54 1a3c
000000a0: 40f4 14bc 66ba 1a3c d16c 04bc 7a00 96bb
000000b0: ef44 573a c73b 97bc decd e8bb ba76 433c
000000c0: c142 06bc be1d c0bb 0704 333c 4604 293c
000000d0: 99f0 8c3b fe26 af3a 417e 54bc 08b0 303c
000000e0: d731 8cbc 72ce 97bb 3fed e43b 1808 f93b
000000f0: 329b 953b 50d8 8c3a 2537 713b 112a c63b
00000100: eee9 46bc 910d a53b a3e2 74bc 65e1 0cbc
00000110: e29d 593c 47c4 3b3b bc51 da3b ab67 6b3c
00000120: 82bb 3dbb 5231 f33b 23aa 5a3c fbcb 2fbc
00000130: 2eee a83b 4a94 7ebc 3583 233c e240 fd38
00000140: 184c 6e3c de52 6c3c be9b 123c 863b 3b3c
00000150: 9561 b4b9 06f5 8c3b f93f dfba 3a29 8b3b
00000160: 9847 3a3c 369a 1f3c d648 463b cccc 483c
00000170: 94dc 1ebc cfa0 113c df97 38ba 30f2 beb9
00000180: 4a52 123c f051 eb3b 8e8e 73bb 1d44 853b
00000190: 36ee 0cbc 1051 c53b 0a21 923b ac8b 073c
000001a0: db22 d1bb 00ff 79ba 8613 e73b a0ee d43a
000001b0: 6c1c 613b d60f 7d3b dd59 0fbc 42b2 4f3c
000001c0: 08f1 293c a18b b33b 1150 2cbc 0b77 b23b
000001d0: 98b6 bc3b e185 3e3c c9e5 08bc 3fef 2abc
000001e0: 9121 be3b ea16 a93b b6d7 e43b 0776 033c
000001f0: c907 5b3c 4756 2a3c 1edb 97ba 5f75 443c

arith.constant24 f4 [64]
-0.009280805 0.010673801 -0.015413884 0.010348691 -0.00814881 -0.009187097 0.008113064 0.016055638
0.006349016 0.012635301 0.003388145 -0.011870019 0.014038011 -0.010652822 0.014974666 0.017640244
0.014138308 0.011302906 -0.00043915008 0.0009615423 0.015462504 -0.0012313167 0.011877564 -0.012053815
-0.008485052 -0.009828267 -0.014805451 0.0010060291 -0.0051655644 0.011705499 -0.013733681 0.017593343
0.0059599783 0.013706879 -0.00689802 -0.012215606 -0.015076361 0.007937956 -0.0042466456 -0.010306462
0.0028866413 -0.013384694 -0.009350752 -0.010291404 0.00904395 0.0067280456 0.013427805 0.014664293
0.009030159 0.014627987 0.007410691 0.014984046 0.015284463 0.012793128 0.013609904 -0.010787943
0.0048995856 0.008197876 0.012355672 0.010853519 0.013464353 0.005267122 0.0030817313 -0.015957776
00000000: 840e 18bc 2be1 2e3c 848a 7cbc 8e8d 293c
00000010: 9682 05bc 7a85 16bc a8ec 043c 1d87 833c
00000020: 680b d03b 4b04 4f3c a40b 5e3b 787a 42bc
00000030: b0ff 653c 2d89 2ebc 4d58 753c 4682 903c
00000040: 5da4 673c d32f 393c ba3d e6b9 0310 7c3a
00000050: 7156 7d3c 2264 a1ba 1d9a 423c 5d7d 45bc
00000060: e304 0bbc bd06 21bc 9092 72bc bcdc 833a
00000070: e543 a9bb 6cc8 3f3c 3c03 61bc ea1f 903c
00000080: ec4b c33b d192 603c c908 e2bb f723 48bc
00000090: d702 77bc 330e 023c 7227 8bbb 6fdc 28bc
000000a0: ce2d 3d3b 7a4b 5bbc e633 19bc 479d 28bc
000000b0: 132d 143c f076 dc3b 4c00 5c3c 8142 703c
000000c0: 3bf3 133c 39aa 6f3c 62d5 f23b a57f 753c
000000d0: af6b 7a3c 459a 513c 13fc 5e3c eabf 30bc
000000e0: b48c a03b 6250 063c 726f 4a3c f5d2 313c
000000f0: 9799 5c3c d297 ac3b dff6 493b e2b9 82bc

arith.constant25 f4 [64]
-0.003622313 0.0028147649 -0.013357713 -0.008360951 0.004178896 0.006086912 0.009726925 0.0098586
-0.0048619695 -0.014582696 0.011957271 0.0077854665 -0.00047557478 -0.015817493 -0.0073961066 -0.0050620935
0.010316607 -0.013821892 -0.007906329 -0.017584408 0.017524073 -0.009742099 0.0120879905 -0.00029733483
-0.0002547064 0.0026647463 0.015668306 0.01401684 0.014618048 -0.014611364 -0.019751424 0.0040448112
0.023581598 -0.017646948 0.0077403 -0.016404385 -0.01207699 -0.0054265982 0.005023146 0.019400492
-0.0050483635 0.015053298 0.01691361 -0.0065564597 -0.011502933 0.011741794 -0.014907504 -0.008983473
-0.00019873143 0.0021498925 0.012315393 -0.0051154145 0.008058737 -0.015878646 0.0055978927 -0.018089436
0.004507106 0.012181617 0.013763685 -0.0061643897 0.017866634 0.0076363035 -0.019878881 0.0008605139
00000000: 5464 6dbb eb77 383b 4fda 5abc 5ffc 08bc
00000010: 1fef 883b b874 c73b ae5d 1f3c f785 213c
00000020: 2851 9fbb 43ec 6ebc 6ee8 433c 3a1d ff3b
00000030: 9156 f9b9 b093 81bc 0a5b f2bb ebdf a5bb
00000040: fc06 293c 3875 62bc 8c89 01bc 2d0d 90bc
00000050: a58e 8f3c 539d 1fbc b50c 463c 9be3 9bb9
00000060: 1d8a 85b9 06a3 2e3b d25a 803c e3a6 653c
00000070: 8a80 6f3c 8164 6fbc bdcd a1bc 568a 843b
00000080: 322e c13c 5590 90bc 58a2 fd3b 7d62 86bc
00000090: 91de 45bc 9bd1 b1bb 3499 a43b c8ed 9e3c
000000a0: be6c a5bb 1ca2 763c 698e 8a3c 92d7 d6bb
000000b0: cc76 3cbc a760 403c 9b3e 74bc 6b2f 13bc
000000c0: 9062 50b9 36e5 0c3b 81c6 493c 359f a7bb
000000d0: cb08 043c ef13 82bc 876e b73b 4c30 94bc
000000e0: 58b0 933b 6895 473c 1481 613c a6fe c9bb
000000f0: 0c5d 923c f539 fa3b 09d9 a2bc 1c94 613a

arith.constant26 f4 [32]
-0.020631993 0.00072893477 -0.012454346 -0.003133888 0.021614656 0.0010846822 0.023749547 0.0044573415
-0.015180773 0.014068076 -0.0020531341 -0.01550881 0.016078489 0.0038205066 -0.011199443 0.019277362
-0.0044522504 -0.016040443 0.011973347 -0.0017301049 0.015766328 0.018457945 -0.016278574 0.019177001
0.017599309 -0.018747613 0.004112735 -0.012902079 -0.017085042 0.014419107 -0.027269546 -0.017785868
00000000: 6d04 a9bc fc15 3f3a 500d 4cbc ea61 4dbb
00000010: 3811 b13c e52b 8e3a 698e c23c e40e 923b
00000020: c7b8 78bc ca7d 663c e08d 06bb aa18 7ebc
00000030: 09b7 833c 7761 7a3b de7d 37bc 8feb 9d3c
00000040: 2fe4 91bb 3f67 83bc db2b 443c b0c4 e2ba
00000050: 6328 813c 1e35 973c a55a 85bc 1619 9d3c
00000060: 6d2c 903c 9894 99bc 1fc4 863b 3e63 53bc
00000070: eef5 8bbc 1e3e 6c3c 6264 dfbc abb3 91bc

arith.constant27 f4 [32]
-0.008549147 -0.028154103 -0.023399416 0.01976104 -0.021542558 -0.022689555 0.016595129 -0.008440836
-0.0027472274 0.013666022 0.016543647 0.0071155443 0.008757113 -0.028765453 -0.0028483781 0.02557513
-0.01572839 -0.023086192 -0.007941084 0.007616117 -0.016774548 -0.019720485 -0.004617286 -0.021445855
0.0035338975 0.017778397 -0.012813967 0.0065763993 0.0067396616 -0.018919151 -0.017428491 -0.020491105
00000000: b911 0cbc 6fa3 e6bc 22b0 bfbc e8e1 a13c
00000010: 057a b0bc 72df b9bc 82f2 873c 6f4b 0abc
00000020: d40a 34bb 73e7 5f3c 8b86 873c 8329 e93b
00000030: fe79 0f3c 87a5 ebbc dbab 3abb ef82 d13c
00000040: d3d8 80bc 411f bdbc 521b 02bc 9f90 f93b
00000050: c76a 89bc db8c a1bc 9a4c 97bb 38af afbc
00000060: f698 673b 00a4 913c acf1 51bc d67e d73b
00000070: 61d8 dc3b 56fc 9abc 32c6 8ebc f6dc a7bc

arith.constant28 f4 [16]
-0.01970162 0.026110485 -0.00039989845 -0.0042320653 -0.0161786 0.008423545 0.031707555 -0.012432345
0.023312401 0.025566801 0.0053878142 -0.008217575 -0.021122253 -0.0008959479 0.016147982 0.0015998288
00000000: 4b65 a1bc a8e5 d53c 76a9 d1b9 23ad 8abb
00000010: fc88 84bc e902 0a3c c8df 013d 09b1 4bbc
00000020: a6f9 be3c 7871 d13c 438c b03b 02a3 06bc
00000030: 9308 adbc 0cde 6aba c648 843c 59b1 d13a

arith.constant30 f4 [1, 1, 1, 16]
0.46434513 -0.0992619 -0.13057162 -0.37179032 -0.5775674 -0.17076369 0.24164332 -0.0844652
0.56844866 -0.42139658 -0.3005372 0.072959766 -0.06404146 -0.6073425 0.43781692 -0.25525472
00000000: a5be ed3e d349 cbbd 91b4 05be 4d5b bebe
00000010: 75db 13bf addc 2ebe 5971 773e 17fc acbd
00000020: da85 113f 4bc1 d7be 03e0 99be ee6b 953d
00000030: 2b28 83bd cc7a 1bbf 8a29 e03e bfb0 82be

tfl.pseudo_qconst i1 [16, 3, 3, 16]
71 -122 33 4 4 -96 -36 -87
-19 -74 19 46 102 -61 -26 -50
111 -6 94 -57 -55 -98 14 -122
-21 -30 98 -7 -28 49 -22 69
-84 89 -79 65 63 -87 68 75
-65 -65 -127 71 19 -71 -6 -15
-71 62 -29 -62 11 6 25 -61
-33 7 23 -29 33 9 9 -126
-108 17 5 22 64 -105 81 -73
-40 30 -74 -49 46 63 -24 -57
-110 26 29 -51 -20 1 80 -82
-21 -49 23 112 -15 -93 -20 -121
88 61 -31 30 8 -93 40 -54
-24 -46 -80 -108 -18 -57 19 -47
114 -99 31 -49 1 74 -92 27
-36 -106 -92 -97 -120 23 -41 6
75 60 4 9 -23 -104 -62 94
-47 -54 77 103 -93 -48 -39 23
-87 -71 -1 0 80 44 1 -42
-31 83 -68 53 -21 -59 -14 -58
73 -43 -2 0 -32 58 -64 -40
44 -53 -56 36 -52 1 45 -78
10 42 0 0 -50 91 1 -7
-16 79 66 103 -6 -52 -115 -7
-69 84 -10 -1 109 98 -40 85
-82 19 -68 70 -26 -77 80 93
28 109 0 0 127 -17 41 34
-31 -36 26 -20 -36 -5 20 27
123 -83 0 0 49 -73 30 -63
-102 95 -43 -9 86 14 -46 121
3 -49 0 0 75 -65 100 74
102 67 48 107 -4 20 50 98
00000000: 4786 2104 04a0 dca9 edb6 132e 66c3 e6ce
00000010: 6ffa 5ec7 c99e 0e86 ebe2 62f9 e431 ea45
00000020: ac59 b141 3fa9 444b bfbf 8147 13b9 faf1
00000030: b93e e3c2 0b06 19c3 df07 17e3 2109 0982
00000040: 9411 0516 4097 51b7 d81e b6cf 2e3f e8c7
00000050: 921a 1dcd ec01 50ae ebcf 1770 f1a3 ec87
00000060: 583d e11e 08a3 28ca e8d2 b094 eec7 13d1
00000070: 729d 1fcf 014a a41b dc96 a49f 8817 d706
00000080: 4b3c 0409 e998 c25e d1ca 4d67 a3d0 d917
00000090: a9b9 ff00 502c 01d6 e153 bc35 ebc5 f2c6
000000a0: 49d5 fe00 e03a c0d8 2ccb c824 cc01 2db2
000000b0: 0a2a 0000 ce5b 01f9 f04f 4267 facc 8df9
000000c0: bb54 f6ff 6d62 d855 ae13 bc46 e6b3 505d
000000d0: 1c6d 0000 7fef 2922 e1dc 1aec dcfb 141b
000000e0: 7bad 0000 31b7 1ec1 9a5f d5f7 560e d279
000000f0: 03cf 0000 4bbf 644a 6643 306b fc14 3262

tfl.pseudo_qconst1 i1 [16, 3, 3, 48]
91 7 56 30 0 28 -44 39
-2 -43 -55 47 -20 -13 -39 45
24 -46 -23 -25 -27 98 -97 12
-28 -6 -47 -38 -72 -80 11 -84
33 -70 56 -48 22 100 0 74
-30 99 -41 64 116 65 11 42
49 -58 -102 -24 70 72 -19 15
65 -1 -4 80 72 104 88 -8
-9 27 -34 39 82 73 75 19
-31 13 96 -42 79 -61 48 19
-8 -13 51 -97 -35 61 -27 -46
1 -10 24 20 6 25 31 32
-59 -81 3 3 -34 -90 95 90
-8 26 100 -65 27 100 60 104
51 90 -92 -11 -59 -42 66 -72
-41 100 -106 29 55 48 11 63
-72 49 -6 32 83 82 39 0
-81 75 5 -59 73 -72 62 59
-60 70 53 31 -86 -101 13 -89
23 41 75 -3 -75 -10 71 -11
-85 12 -100 118 7 -24 22 77
23 -20 -93 -41 32 -28 92 33
40 -71 35 12 71 48 -9 84
-100 92 74 117 89 105 -27 42
-104 -40 98 4 82 61 -40 -74
30 -65 -97 91 -20 78 -32 -59
-109 -9 2 28 -53 -15 81 72
-75 71 19 -16 -45 -27 127 -32
77 79 108 35 -90 53 -45 -33
0 36 95 65 102 102 40 -65
-9 62 -97 36 -64 -38 50 -25
109 69 71 23 32 68 -52 30
00000000: 5b07 381e 001c d427 fed5 c92f ecf3 d92d
00000010: 18d2 e9e7 e562 9f0c e4fa d1da b8b0 0bac
00000020: 21ba 38d0 1664 004a e263 d740 7441 0b2a
00000030: 31c6 9ae8 4648 ed0f 41ff fc50 4868 58f8
00000040: f71b de27 5249 4b13 e10d 60d6 4fc3 3013
00000050: f8f3 339f dd3d e5d2 01f6 1814 0619 1f20
00000060: c5af 0303 dea6 5f5a f81a 64bf 1b64 3c68
00000070: 335a a4f5 c5d6 42b8 d764 961d 3730 0b3f
00000080: b831 fa20 5352 2700 af4b 05c5 49b8 3e3b
00000090: c446 351f aa9b 0da7 1729 4bfd b5f6 47f5
000000a0: ab0c 9c76 07e8 164d 17ec a3d7 20e4 5c21
000000b0: 28b9 230c 4730 f754 9c5c 4a75 5969 e52a
000000c0: 98d8 6204 523d d8b6 1ebf 9f5b ec4e e0c5
000000d0: 93f7 021c cbf1 5148 b547 13f0 d3e5 7fe0
000000e0: 4d4f 6c23 a635 d3df 0024 5f41 6666 28bf
000000f0: f73e 9f24 c0da 32e7 6d45 4717 2044 cc1e

tfl.pseudo_qconst2 i1 [32, 3, 3, 32]
7 -11 -36 75 -94 59 -64 -16
23 117 -80 92 25 99 -4 19
33 71 -1 -26 37 -37 4 -77
42 16 11 -52 99 65 -73 -111
2 13 55 -54 -111 79 -101 127
-23 -44 39 21 -45 -80 3 -67
-10 -20 -76 79 -69 -81 36 -116
42 -2 59 -1 -61 35 34 71
2 49 9 -87 69 20 -69 59
97 -89 84 -31 98 22 1 -35
66 -55 -64 -88 -39 54 -34 -107
91 -93 11 -72 8 14 68 1
2 117 119 75 -71 -94 -60 -72
-103 119 -96 31 85 13 -1 -27
6 -52 -36 -19 -76 86 -6 9
125 7 -37 -17 -94 66 -71 -56
2 -109 49 -11 -82 -6 -60 63
29 39 99 13 59 -47 -3 80
-43 -4 -9 20 18 -72 -1 -59
-26 107 91 75 -72 52 94 -74
-11 -78 100 -105 -75 -111 73 4
15 59 -88 93 62 82 -1 -91
22 112 37 37 -7 72 74 -31
30 54 -86 46 -59 -96 94 -123
3 -86 92 53 -24 -69 67 -67
77 -42 -78 29 -100 -74 10 90
69 92 -27 87 87 -51 13 68
93 -44 90 81 13 6 104 -16
2 -41 28 -52 -17 -50 -3 -54
-49 63 -24 54 -63 -36 -8 -60
1 -1 -10 53 -112 -64 89 -70
68 -102 107 56 -16 18 4 -10
00000000: 07f5 dc4b a23b c0f0 1775 b05c 1963 fc13
00000010: 2147 ffe6 25db 04b3 2a10 0bcc 6341 b791
00000020: 020d 37ca 914f 9b7f e9d4 2715 d3b0 03bd
00000030: f6ec b44f bbaf 248c 2afe 3bff c323 2247
00000040: 0231 09a9 4514 bb3b 61a7 54e1 6216 01dd
00000050: 42c9 c0a8 d936 de95 5ba3 0bb8 080e 4401
00000060: 0275 774b b9a2 c4b8 9977 a01f 550d ffe5
00000070: 06cc dced b456 fa09 7d07 dbef a242 b9c8
00000080: 0293 31f5 aefa c43f 1d27 630d 3bd1 fd50
00000090: d5fc f714 12b8 ffc5 e66b 5b4b b834 5eb6
000000a0: f5b2 6497 b591 4904 0f3b a85d 3e52 ffa5
000000b0: 1670 2525 f948 4ae1 1e36 aa2e c5a0 5e85
000000c0: 03aa 5c35 e8bb 43bd 4dd6 b21d 9cb6 0a5a
000000d0: 455c e557 57cd 0d44 5dd4 5a51 0d06 68f0
000000e0: 02d7 1ccc efce fdca cf3f e836 c1dc f8c4
000000f0: 01ff f635 90c0 59ba 449a 6b38 f012 04f6

tfl.pseudo_qconst3 i1 [32, 3, 3, 96]
-75 -3 -45 -10 -12 2 -43 -4
-24 -3 -95 -33 -36 -74 -50 9
-120 -6 -15 -57 -59 -59 -55 -41
-32 -33 3 0 -38 30 -30 -34
-34 -52 -91 -56 7 -38 -11 -54
-64 -29 -44 -49 -49 -60 -39 -24
-43 -38 -26 -56 -37 -48 -72 -28
-48 -33 -47 -34 -26 -36 -26 -47
-29 -1 -34 -43 -21 -37 -27 -44
-71 -31 -56 -29 -38 5 -35 -37
5 -30 -15 -31 -27 -35 -36 -14
-48 -46 -26 -55 -38 6 -64 -93
-39 0 -95 -12 -44 -47 -45 15
-38 2 -42 -12 -33 -9 -50 39
-70 -44 -56 -55 -59 -5 -52 -31
-28 -36 -50 3 -3 -35 16 -3
-36 -53 -45 -50 10 -22 -53 -58
-67 -35 -34 -13 -93 -69 25 -47
-43 -38 -2 -6 -43 -45 -25 -24
-43 -30 -50 -57 -17 -29 -37 -49
-29 -1 -34 -44 -21 -65 -29 -33
-32 -27 -66 11 -40 -13 -33 -38
7 -29 -23 -3 -37 -32 -37 -13
-45 -16 -35 -38 -37 13 -23 -88
-38 4 -47 -9 -19 23 -54 -38
-40 4 -70 -29 -33 -5 -62 -32
-57 -43 -15 -51 -75 4 -104 -29
-27 -37 -42 -5 -40 -37 -26 -32
-23 -57 -43 -47 17 -27 -52 -44
-71 -26 -41 -49 2 -47 -86 -28
-43 -55 7 -37 10 -47 -27 -19
-43 -24 -81 -41 -34 -27 -39 -58
00000000: b5fd d3f6 f402 d5fc e8fd a1df dcb6 ce09
00000010: 88fa f1c7 c5c5 c9d7 e0df 0300 da1e e2de
00000020: decc a5c8 07da f5ca c0e3 d4cf cfc4 d9e8
00000030: d5da e6c8 dbd0 b8e4 d0df d1de e6dc e6d1
00000040: e3ff ded5 ebdb e5d4 b9e1 c8e3 da05 dddb
00000050: 05e2 f1e1 e5dd dcf2 d0d2 e6c9 da06 c0a3
00000060: d900 a1f4 d4d1 d30f da02 d6f4 dff7 ce27
00000070: bad4 c8c9 c5fb cce1 e4dc ce03 fddd 10fd
00000080: dccb d3ce 0aea cbc6 bddd def3 a3bb 19d1
00000090: d5da fefa d5d3 e7e8 d5e2 cec7 efe3 dbcf
000000a0: e3ff ded4 ebbf e3df e0e5 be0b d8f3 dfda
000000b0: 07e3 e9fd dbe0 dbf3 d3f0 ddda db0d e9a8
000000c0: da04 d1f7 ed17 cada d804 bae3 dffb c2e0
000000d0: c7d5 f1cd b504 98e3 e5db d6fb d8db e6e0
000000e0: e9c7 d5d1 11e5 ccd4 b9e6 d7cf 02d1 aae4
000000f0: d5c9 07db 0ad1 e5ed d5e8 afd7 dee5 d9c6

tfl.pseudo_qconst4 i1 [64, 3, 3, 64]
-28 -28 -27 15 111 -7 -71 -84
-62 -69 3 108 40 114 69 33
-54 73 33 100 -29 15 19 -37
54 -74 -89 1 -41 -84 -9 -75
74 69 28 -38 -104 10 8 -79
50 59 13 45 -120 -11 -8 84
-54 -19 -43 104 -90 -1 -73 -97
-62 92 120 23 40 95 -98 32
61 80 84 -50 109 91 0 66
28 -16 -95 93 -80 83 13 25
-40 56 119 44 -72 -105 -110 -100
45 -6 56 1 -67 59 30 -59
-96 50 93 38 94 123 -80 92
-106 -106 93 78 -90 105 35 -70
-116 82 65 59 108 0 55 -77
-55 76 108 95 -33 8 96 24
29 53 -84 68 33 79 117 40
-81 42 -38 -31 5 -70 56 -2
112 -104 -10 3 -1 -46 -45 56
10 -16 -95 -4 -6 88 60 32
-53 100 121 69 -81 -55 85 116
-32 18 61 -10 -96 -41 -49 -51
107 20 -76 -27 6 -1 -77 -60
107 61 -108 78 -100 -85 -77 18
-105 122 -116 -7 111 70 -10 6
127 33 -113 -27 -34 9 -101 43
-109 -49 97 -32 -109 -37 -54 -81
-3 36 -86 1 24 104 -12 -1
123 -44 -35 -63 -13 -84 117 55
-120 115 70 4 24 115 100 65
-24 1 114 -19 104 0 54 -102
-54 47 -38 17 -92 69 -11 37
00000000: e4e4 e50f 6ff9 b9ac c2bb 036c 2872 4521
00000010: ca49 2164 e30f 13db 36b6 a701 d7ac f7b5
00000020: 4a45 1cda 980a 08b1 323b 0d2d 88f5 f854
00000030: caed d568 a6ff b79f c25c 7817 285f 9e20
00000040: 3d50 54ce 6d5b 0042 1cf0 a15d b053 0d19
00000050: d838 772c b897 929c 2dfa 3801 bd3b 1ec5
00000060: a032 5d26 5e7b b05c 9696 5d4e a669 23ba
00000070: 8c52 413b 6c00 37b3 c94c 6c5f df08 6018
00000080: 1d35 ac44 214f 7528 af2a dae1 05ba 38fe
00000090: 7098 f603 ffd2 d338 0af0 a1fc fa58 3c20
000000a0: cb64 7945 afc9 5574 e012 3df6 a0d7 cfcd
000000b0: 6b14 b4e5 06ff b3c4 6b3d 944e 9cab b312
000000c0: 977a 8cf9 6f46 f606 7f21 8fe5 de09 9b2b
000000d0: 93cf 61e0 93db caaf fd24 aa01 1868 f4ff
000000e0: 7bd4 ddc1 f3ac 7537 8873 4604 1873 6441
000000f0: e801 72ed 6800 369a ca2f da11 a445 f525

tfl.pseudo_qconst5 i1 [64, 3, 3, 192]
63 -33 -18 -10 -77 -30 37 -77
34 -71 48 57 -28 9 -67 -23
57 41 59 4 -35 -26 51 42
54 -6 10 51 36 39 41 73
-70 -59 47 14 -43 51 1 44
11 -65 30 -25 -3 -22 -15 51
70 -34 51 45 57 -27 -72 -4
63 46 -11 -38 0 -31 -48 -7
17 21 -55 -2 -12 -44 2 58
46 10 73 -7 22 -4 -3 -31
-36 -79 -36 -44 -35 79 -64 -54
-45 40 -6 18 71 -29 -9 -72
-76 -44 14 -4 16 44 -58 37
71 -10 46 -45 5 19 0 -72
19 57 -75 15 68 -34 63 53
15 25 46 -3 62 -80 -8 -9
72 60 -59 18 -54 -23 -8 27
-53 -69 26 29 -67 -61 -28 -25
-30 56 1 69 -78 46 -57 36
-50 6 13 9 1 -11 -61 2
16 60 -62 -69 23 -39 -48 -31
68 7 -32 -14 0 44 26 28
26 78 1 1 -10 16 26 56
-22 -29 32 66 -46 -46 25 -5
5 -63 -26 43 -34 19 20 -75
16 7 50 -41 -30 -69 5 62
-19 -18 14 44 64 -15 15 31
-45 -17 -10 -16 -74 34 54 78
-6 38 -68 -21 -26 49 31 27
56 -42 4 29 -65 -70 -66 5
-70 9 -24 -18 -84 11 74 38
-19 43 64 -66 55 0 -120 -75
00000000: 3fdf eef6 b3e2 25b3 22b9 3039 e409 bde9
00000010: 3929 3b04 dde6 332a 36fa 0a33 2427 2949
00000020: bac5 2f0e d533 012c 0bbf 1ee7 fdea f133
00000030: 46de 332d 39e5 b8fc 3f2e f5da 00e1 d0f9
00000040: 1115 c9fe f4d4 023a 2e0a 49f9 16fc fde1
00000050: dcb1 dcd4 dd4f c0ca d328 fa12 47e3 f7b8
00000060: b4d4 0efc 102c c625 47f6 2ed3 0513 00b8
00000070: 1339 b50f 44de 3f35 0f19 2efd 3eb0 f8f7
00000080: 483c c512 cae9 f81b cbbb 1a1d bdc3 e4e7
00000090: e238 0145 b22e c724 ce06 0d09 01f5 c302
000000a0: 103c c2bb 17d9 d0e1 4407 e0f2 002c 1a1c
000000b0: 1a4e 0101 f610 1a38 eae3 2042 d2d2 19fb
000000c0: 05c1 e62b de13 14b5 1007 32d7 e2bb 053e
000000d0: edee 0e2c 40f1 0f1f d3ef f6f0 b622 364e
000000e0: fa26 bceb e631 1f1b 38d6 041d bfba be05
000000f0: ba09 e8ee ac0b 4a26 ed2b 40be 3700 88b5

tfl.pseudo_qconst6 i1 [128, 3, 3, 128]
-42 85 11 30 -57 12 -8 43
-76 -14 -75 74 79 89 -17 -80
-46 0 -44 8 -18 67 93 9
98 19 -82 8 -80 70 -58 -63
-68 18 15 -75 36 -66 -63 90
54 -78 78 -67 22 -88 0 3
0 -47 35 -18 45 59 -66 -44
-32 49 -25 45 65 -13 -7 54
-61 32 63 5 -95 39 -42 -28
53 -6 -31 39 28 54 12 -76
0 50 -36 81 -37 14 -30 -33
60 69 119 -80 82 -53 24 18
23 56 0 -70 -13 8 10 34
40 68 60 15 5 -61 66 31
98 32 -71 -18 102 10 -45 14
-19 -67 39 -42 -25 41 12 -62
52 89 9 36 74 35 97 19
52 -89 -70 -23 76 -47 62 -1
84 0 -5 52 21 -95 73 11
89 88 88 -64 -60 -46 -50 9
35 33 39 -56 -85 12 74 -8
88 -42 38 -62 53 -2 0 16
0 76 -32 -65 -50 -57 -89 16
-29 -53 66 12 49 -59 50 -71
-52 -65 -33 40 -27 66 52 19
13 -58 7 45 28 22 11 38
19 -17 52 71 40 10 -23 -11
11 -81 -43 16 -77 -48 -68 -69
-86 2 -17 9 -60 -37 27 -31
-77 -35 18 63 12 -18 51 64
71 46 -35 2 -32 -67 83 -12
-66 13 26 -28 -11 15 17 -92
00000000: d655 0b1e c70c f82b b4f2 b54a 4f59 efb0
00000010: d200 d408 ee43 5d09 6213 ae08 b046 c6c1
00000020: bc12 0fb5 24be c15a 36b2 4ebd 16a8 0003
00000030: 00d1 23ee 2d3b bed4 e031 e72d 41f3 f936
00000040: c320 3f05 a127 d6e4 35fa e127 1c36 0cb4
00000050: 0032 dc51 db0e e2df 3c45 77b0 52cb 1812
00000060: 1738 00ba f308 0a22 2844 3c0f 05c3 421f
00000070: 6220 b9ee 660a d30e edbd 27d6 e729 0cc2
00000080: 3459 0924 4a23 6113 34a7 bae9 4cd1 3eff
00000090: 5400 fb34 15a1 490b 5958 58c0 c4d2 ce09
000000a0: 2321 27c8 ab0c 4af8 58d6 26c2 35fe 0010
000000b0: 004c e0bf cec7 a710 e3cb 420c 31c5 32b9
000000c0: ccbf df28 e542 3413 0dc6 072d 1c16 0b26
000000d0: 13ef 3447 280a e9f5 0baf d510 b3d0 bcbb
000000e0: aa02 ef09 c4db 1be1 b3dd 123f 0cee 3340
000000f0: 472e dd02 e0bd 53f4 be0d 1ae4 f50f 11a4

tfl.pseudo_qconst7 i1 [128, 3, 3, 64]
43 64 9 -38 -16 -21 -5 -94
110 -63 71 3 10 65 23 -17
-41 -101 72 -119 87 15 -81 -55
-90 21 -70 99 2 81 -83 -19
28 81 -40 83 16 16 16 -15
65 9 37 69 -68 9 51 -36
-4 46 -101 -29 -38 -40 46 47
-43 36 0 30 -16 -53 108 -35
7 -34 98 -10 56 -67 34 -28
113 -85 38 -30 86 89 111 99
92 17 90 -41 -54 16 -93 14
10 -21 -96 73 26 -93 38 43
27 -33 -50 59 59 -26 -43 58
32 62 64 -51 -101 95 2 5
20 30 46 -63 47 -107 -27 19
-81 -60 65 -75 42 21 83 10
33 51 75 16 98 -15 -33 -36
32 112 -26 44 112 -38 64 86
-55 -14 -72 12 -46 109 34 -6
-27 -17 81 18 120 1 -69 -53
-23 33 9 49 10 -60 -17 103
-27 85 3 84 -24 -59 97 91
-66 -72 -38 -57 41 -48 105 -55
-40 87 -2 -3 82 41 -2 104
-77 14 -16 57 30 -62 65 -53
23 58 81 -49 67 48 0 101
-60 -59 48 42 86 -44 85 -54
60 9 94 69 -8 82 -98 73
28 -18 94 50 83 89 -74 -64
83 -33 31 35 -96 54 -62 107
-36 -55 52 65 -33 -94 67 74
-74 23 35 -84 32 -52 66 -32
00000000: 2b40 09da f0eb fba2 6ec1 4703 0a41 17ef
00000010: d79b 4889 570f afc9 a615 ba63 0251 aded
00000020: 1c51 d853 1010 10f1 4109 2545 bc09 33dc
00000030: fc2e 9be3 dad8 2e2f d524 001e f0cb 6cdd
00000040: 07de 62f6 38bd 22e4 71ab 26e2 5659 6f63
00000050: 5c11 5ad7 ca10 a30e 0aeb a049 1aa3 262b
00000060: 1bdf ce3b 3be6 d53a 203e 40cd 9b5f 0205
00000070: 141e 2ec1 2f95 e513 afc4 41b5 2a15 530a
00000080: 2133 4b10 62f1 dfdc 2070 e62c 70da 4056
00000090: c9f2 b80c d26d 22fa e5ef 5112 7801 bbcb
000000a0: e921 0931 0ac4 ef67 e555 0354 e8c5 615b
000000b0: beb8 dac7 29d0 69c9 d857 fefd 5229 fe68
000000c0: b30e f039 1ec2 41cb 173a 51cf 4330 0065
000000d0: c4c5 302a 56d4 55ca 3c09 5e45 f852 9e49
000000e0: 1cee 5e32 5359 b6c0 53df 1f23 a036 c26b
000000f0: dcc9 3441 dfa2 434a b617 23ac 20cc 42e0

tfl.pseudo_qconst8 i1 [64, 3, 3, 64]
-81 -3 -82 -47 25 49 -69 -16
78 9 -63 43 39 -63 -20 -54
-25 111 0 43 -97 45 58 7
-55 95 -89 59 39 25 31 -34
-23 -13 10 84 6 91 -7 -35
68 -77 78 40 -24 -39 75 68
-48 -7 -51 103 -36 21 49 49
-38 55 -119 58 -22 105 94 26
12 -48 -94 20 89 -56 61 78
-42 -39 -14 19 -21 -33 -76 72
60 36 0 0 25 -59 -12 2
-63 33 -49 20 25 -33 67 -43
-22 62 30 90 0 94 65 31
-97 0 45 56 -67 79 -30 41
-96 -50 -39 57 11 66 -14 -85
-41 58 -49 54 -77 97 98 -25
3 -71 17 -33 -18 72 -38 -75
-2 67 26 -35 -104 48 65 26
-76 -35 0 -76 65 88 -79 -17
-41 -36 87 -74 -24 -21 -32 -63
75 -80 30 -33 23 -86 63 -14
-22 20 100 -77 -29 22 -30 9
-50 22 -21 -60 -59 69 55 -23
68 -41 0 36 -23 77 -93 59
-8 78 45 -39 67 -1 97 66
-15 -44 -8 44 -93 35 -31 -56
90 16 0 -24 21 43 1 -81
43 65 66 -7 -82 23 -45 -31
-9 -73 -37 -7 15 -37 -76 -31
-22 -46 49 43 59 -42 -74 -69
-41 -79 11 -64 -48 -61 50 17
15 46 -44 45 43 95 -29 24
00000000: affd aed1 1931 bbf0 4e09 c12b 27c1 ecca
00000010: e76f 002b 9f2d 3a07 c95f a73b 2719 1fde
00000020: e9f3 0a54 065b f9dd 44b3 4e28 e8d9 4b44
00000030: d0f9 cd67 dc15 3131 da37 893a ea69 5e1a
00000040: 0cd0 a214 59c8 3d4e d6d9 f213 ebdf b448
00000050: 3c24 0000 19c5 f402 c121 cf14 19df 43d5
00000060: ea3e 1e5a 005e 411f 9f00 2d38 bd4f e229
00000070: a0ce d939 0b42 f2ab d73a cf36 b361 62e7
00000080: 03b9 11df ee48 dab5 fe43 1add 9830 411a
00000090: b4dd 00b4 4158 b1ef d7dc 57b6 e8eb e0c1
000000a0: 4bb0 1edf 17aa 3ff2 ea14 64b3 e316 e209
000000b0: ce16 ebc4 c545 37e9 44d7 0024 e94d a33b
000000c0: f84e 2dd9 43ff 6142 f1d4 f82c a323 e1c8
000000d0: 5a10 00e8 152b 01af 2b41 42f9 ae17 d3e1
000000e0: f7b7 dbf9 0fdb b4e1 ead2 312b 3bd6 b6bb
000000f0: d7b1 0bc0 d0c3 3211 0f2e d42d 2b5f e318

tfl.pseudo_qconst9 i1 [64, 3, 3, 32]
17 -25 -73 -101 -13 49 92 -78
-24 61 103 39 9 -86 71 34
-15 41 32 104 -80 57 26 -113
-37 -33 -77 81 -77 104 0 -47
-61 97 -44 58 50 125 -62 0
126 -87 76 24 106 56 29 50
-9 -67 -86 -74 113 -60 -79 -82
42 -106 -40 -48 -41 1 62 68
80 59 40 47 -8 104 102 62
-90 19 -97 -93 -75 42 -95 83
70 46 -47 -19 85 -111 110 -57
-77 0 105 67 -85 -119 -108 -107
-72 8 -12 -107 -56 24 -3 -94
2 -49 49 -59 119 5 93 89
-95 56 -72 103 18 -55 -95 113
-56 89 -3 -24 17 -87 -77 77
-74 51 -77 123 -41 99 -55 63
36 -58 105 -40 37 56 69 81
-47 124 127 118 22 -111 -58 63
-22 -36 -80 80 10 -7 -38 19
122 -89 91 106 11 90 -99 109
-74 25 63 50 25 -95 36 -115
-6 58 90 61 23 -9 86 -90
15 -81 0 43 50 -26 -91 24
-112 61 -69 4 6 89 -24 85
-60 -114 3 -9 -50 -79 104 20
38 90 -46 38 -109 -4 -90 -89
-42 109 -105 54 48 96 -122 82
-48 109 57 -1 -49 -19 84 16
103 55 31 14 -10 -83 7 97
-46 -59 -102 75 -27 65 -96 -85
67 106 57 -63 -55 117 4 -73
00000000: 11e7 b79b f331 5cb2 e83d 6727 09aa 4722
00000010: f129 2068 b039 1a8f dbdf b351 b368 00d1
00000020: c361 d43a 327d c200 7ea9 4c18 6a38 1d32
00000030: f7bd aab6 71c4 b1ae 2a96 d8d0 d701 3e44
00000040: 503b 282f f868 663e a613 9fa3 b52a a153
00000050: 462e d1ed 5591 6ec7 b300 6943 ab89 9495
00000060: b808 f495 c818 fda2 02cf 31c5 7705 5d59
00000070: a138 b867 12c9 a171 c859 fde8 11a9 b34d
00000080: b633 b37b d763 c93f 24c6 69d8 2538 4551
00000090: d17c 7f76 1691 c63f eadc b050 0af9 da13
000000a0: 7aa7 5b6a 0b5a 9d6d b619 3f32 19a1 248d
000000b0: fa3a 5a3d 17f7 56a6 0faf 002b 32e6 a518
000000c0: 903d bb04 0659 e855 c48e 03f7 ceb1 6814
000000d0: 265a d226 93fc a6a7 d66d 9736 3060 8652
000000e0: d06d 39ff cfed 5410 6737 1f0e f6ad 0761
000000f0: d2c5 9a4b e541 a0ab 436a 39c1 c975 04b7

tfl.pseudo_qconst10 i1 [32, 3, 3, 32]
5 28 58 -59 -24 21 18 71
0 -52 0 -99 -23 16 112 2
-30 -11 -5 108 78 -70 -69 -49
-57 -91 87 52 90 12 -61 -30
4 -24 45 64 -78 77 -109 95
96 -90 -1 29 -57 89 59 -72
-46 49 36 45 78 58 112 -63
-14 27 33 11 -47 102 -33 42
87 35 42 -59 -9 24 -31 45
28 -71 -25 -106 -41 45 -6 -102
44 29 107 54 -74 21 96 -12
75 3 57 -60 -48 108 122 0
-46 3 -21 -14 10 112 -47 -54
-54 75 -4 -16 63 62 115 89
82 108 87 72 21 -97 70 114
106 4 -37 -96 -108 -54 112 18
-82 65 100 -93 88 31 -10 -55
43 -37 41 -81 84 -41 21 -47
-60 31 39 -3 70 -59 116 71
-53 16 -37 -93 19 29 60 -55
34 86 48 -98 4 -82 -31 94
-28 102 -78 83 44 0 -35 -103
58 42 106 -10 20 71 -57 85
63 -88 -57 -89 -110 119 -35 -14
91 18 85 -30 91 112 -79 -28
2 5 -15 -27 -12 99 16 11
-18 72 -85 -16 69 -80 51 -26
28 -57 -65 81 -84 112 -12 14
31 127 100 -35 49 -81 -26 8
-65 61 5 -44 -18 58 58 56
-59 40 -55 -76 39 54 14 78
-7 -85 -100 81 -107 -79 43 -91
00000000: 051c 3ac5 e815 1247 00cc 009d e910 7002
00000010: e2f5 fb6c 4eba bbcf c7a5 5734 5a0c c3e2
00000020: 04e8 2d40 b24d 935f 60a6 ff1d c759 3bb8
00000030: d231 242d 4e3a 70c1 f21b 210b d166 df2a
00000040: 5723 2ac5 f718 e12d 1cb9 e796 d72d fa9a
00000050: 2c1d 6b36 b615 60f4 4b03 39c4 d06c 7a00
00000060: d203 ebf2 0a70 d1ca ca4b fcf0 3f3e 7359
00000070: 526c 5748 159f 4672 6a04 dba0 94ca 7012
00000080: ae41 64a3 581f f6c9 2bdb 29af 54d7 15d1
00000090: c41f 27fd 46c5 7447 cb10 dba3 131d 3cc9
000000a0: 2256 309e 04ae e15e e466 b253 2c00 dd99
000000b0: 3a2a 6af6 1447 c755 3fa8 c7a7 9277 ddf2
000000c0: 5b12 55e2 5b70 b1e4 0205 f1e5 f463 100b
000000d0: ee48 abf0 45b0 33e6 1cc7 bf51 ac70 f40e
000000e0: 1f7f 64dd 31af e608 bf3d 05d4 ee3a 3a38
000000f0: c528 c9b4 2736 0e4e f9ab 9c51 95b1 2ba5

tfl.pseudo_qconst11 i1 [32, 3, 3, 16]
-20 108 -78 67 30 -18 9 -12
-57 22 -103 3 19 127 -101 -23
34 -35 85 -48 -30 65 -116 -83
58 -34 68 -33 21 68 -37 23
-36 56 -73 -84 4 86 -123 18
-58 -58 13 91 -86 64 104 -14
15 -40 113 -111 -88 10 -102 11
-112 87 -67 48 -38 18 51 65
-85 23 40 -104 -67 -35 -14 69
25 55 41 -95 -67 12 -21 -12
126 44 31 25 -30 69 -96 -75
49 38 26 108 57 -39 -53 70
-92 36 -1 -99 -23 41 97 22
69 -90 -21 17 -78 79 -11 100
61 -110 16 33 62 -59 22 7
-119 1 93 75 116 65 46 35
-46 -24 89 39 71 55 85 79
-104 1 -59 123 74 -23 31 4
95 -37 15 29 112 44 66 -16
73 64 8 -67 21 9 13 74
119 102 45 103 65 55 -87 -64
-62 -93 69 92 -13 94 -89 -40
93 -42 88 -62 17 32 -103 29
40 -107 35 -38 119 75 -17 40
-90 9 98 67 74 -64 46 -58
-79 46 14 46 46 14 -84 -24
57 -60 -93 55 -51 -66 -83 -19
54 33 32 73 -98 -84 -17 64
-13 -5 8 -61 110 127 -30 -26
58 84 -6 27 -26 -92 -34 50
-104 -45 89 115 -4 32 23 -10
31 -111 44 87 -29 -16 28 -76
00000000: ec6c b243 1eee 09f4 c716 9903 137f 9be9
00000010: 22dd 55d0 e241 8cad 3ade 44df 1544 db17
00000020: dc38 b7ac 0456 8512 c6c6 0d5b aa40 68f2
00000030: 0fd8 7191 a80a 9a0b 9057 bd30 da12 3341
00000040: ab17 2898 bddd f245 1937 29a1 bd0c ebf4
00000050: 7e2c 1f19 e245 a0b5 3126 1a6c 39d9 cb46
00000060: a424 ff9d e929 6116 45a6 eb11 b24f f564
00000070: 3d92 1021 3ec5 1607 8901 5d4b 7441 2e23
00000080: d2e8 5927 4737 554f 9801 c57b 4ae9 1f04
00000090: 5fdb 0f1d 702c 42f0 4940 08bd 1509 0d4a
000000a0: 7766 2d67 4137 a9c0 c2a3 455c f35e a7d8
000000b0: 5dd6 58c2 1120 991d 2895 23da 774b ef28
000000c0: a609 6243 4ac0 2ec6 b12e 0e2e 2e0e ace8
000000d0: 39c4 a337 cdbe aded 3621 2049 9eac ef40
000000e0: f3fb 08c3 6e7f e2e6 3a54 fa1b e6a4 de32
000000f0: 98d3 5973 fc20 17f6 1f91 2c57 e3f0 1cb4

tfl.pseudo_qconst12 i1 [16, 3, 3, 16]
51 -37 -80 105 -30 51 -24 71
-4 12 90 36 20 -1 -66 85
-35 -65 -13 94 3 56 -83 -76
-49 -80 97 72 -9 -13 98 -58
45 79 6 127 44 75 -107 107
-52 -10 -32 -14 -73 -7 1 -10
-24 -63 -67 98 -26 48 -38 69
57 -88 27 97 -70 -5 -54 47
21 16 -20 102 -3 -17 -126 91
44 -102 7 -93 -29 6 -25 19
-40 -53 35 -62 -42 18 -71 -91
64 -53 5 57 -87 3 -67 -83
-63 -82 -44 12 -80 -27 30 67
49 -43 -94 20 48 -1 66 26
6 40 -43 68 -50 52 12 -15
-93 -75 -72 105 12 -4 53 -29
57 8 -22 66 -11 6 -104 86
45 -66 -52 104 46 -2 -49 -99
-29 109 -96 60 -1 5 61 71
-1 29 66 37 49 5 24 22
-75 -67 43 -79 -44 -9 -76 100
-7 68 84 76 -75 7 105 -106
30 69 -51 74 -95 -90 56 -72
-63 -30 -22 81 56 9 8 63
-26 -37 83 -45 -72 -25 110 -37
-17 49 -77 20 43 20 -93 -97
-27 0 93 81 -9 8 60 -109
119 -68 -16 -47 -46 0 -102 -11
38 -28 -96 -40 29 20 10 36
-71 83 27 -63 5 -15 33 12
-92 -82 -27 -106 -73 45 68 30
-31 127 -112 61 -51 5 -97 108
00000000: 33db b069 e233 e847 fc0c 5a24 14ff be55
00000010: ddbf f35e 0338 adb4 cfb0 6148 f7f3 62c6
00000020: 2d4f 067f 2c4b 956b ccf6 e0f2 b7f9 01f6
00000030: e8c1 bd62 e630 da45 39a8 1b61 bafb ca2f
00000040: 1510 ec66 fdef 825b 2c9a 07a3 e306 e713
00000050: d8cb 23c2 d612 b9a5 40cb 0539 a903 bdad
00000060: c1ae d40c b0e5 1e43 31d5 a214 30ff 421a
00000070: 0628 d544 ce34 0cf1 a3b5 b869 0cfc 35e3
00000080: 3908 ea42 f506 9856 2dbe cc68 2efe cf9d
00000090: e36d a03c ff05 3d47 ff1d 4225 3105 1816
000000a0: b5bd 2bb1 d4f7 b464 f944 544c b507 6996
000000b0: 1e45 cd4a a1a6 38b8 c1e2 ea51 3809 083f
000000c0: e6db 53d3 b8e7 6edb ef31 b314 2b14 a39f
000000d0: e500 5d51 f708 3c93 77bc f0d1 d200 9af5
000000e0: 26e4 a0d8 1d14 0a24 b953 1bc1 05f1 210c
000000f0: a4ae e596 b72d 441e e17f 903d cd05 9f6c
